CinnamonTutorial/notebook3/mnist.pth (torch, 71540 bytes, 4 tensors)

conv2d.weight f4 [4, 1, 7, 7]
00000000: 8c29 a7bc ee4f 17bd f7fa 82bd 8c3b 673d
00000010: ba4e bd3d 5976 0d3e 4283 82bd 62ad 2cbd
00000020: a664 93bd fdb9 b2bd c21e 07bd 8f35 17bc
00000030: 0b76 063e 0c23 383e 0d92 063e ea40 8bbc
00000040: ca8c 1ebd cecb 1fbe 15f3 7a3c 639c 90bd
00000050: 32b5 2b3e 4ed3 763d 45a8 18bd a34c 9bbd
00000060: 43e4 debd 9a7b f9bd d4fa 4dbd cb0e 2e3d
00000070: 431a 943d bec8 a13d 506a bebc 3b2b 8fbd
00000080: a3ac d5bd 12d5 c3bd 48cb f8bd 3613 1f3d
00000090: 5338 d43c fe8a 353d 88cf 00bc 341f 77bd
000000a0: 22c7 7abc 00f9 9bbc 3509 06bd db01 a93b
000000b0: ef9f cf3d 880c b63d 9c80 9c3c 5666 30bd
000000c0: 29ba 6fbc 35cb 4d3c 4f53 fabc b229 163c
000000d0: 3cda 963d ff7f 13bd 46a8 46bd 0742 71bc
000000e0: 54b9 57bd 28e0 903d 281b a63d f4e7 3c3c
000000f0: 7dcf c2bd 7492 06be dd65 923a fc4c 8c3d
00000100: b569 e73d 8ac8 1d3d 9bbf 1dbc e3b1 fbbd
00000110: e39f bdbb 0153 fc3d 66df c13d aeb3 7c3d
00000120: cafb 903d f479 c8bd f925 5cbe 2161 e03c
00000130: d4d5 ba3d 61e5 f23d 7d34 9dba 40fe afbc
00000140: a7b0 f4bd 3e6c 29bd 3434 1bbd 234b 6c3b
00000150: b9f4 ac3d e04b 41bd 4a3b 5a3c d1c8 3bbd
00000160: 3ce6 7abd 5b53 15bd d9f4 643d 76a8 143e
00000170: 8f0a b2bc aea9 5fbc 6c50 efbc e8ce 7d3c
00000180: be78 eabd b3bf 273d 25fd 57bb 4510 aa3d
00000190: 8e0e 823d 6e50 d13c 0117 07be 2ed4 fabc
000001a0: 2692 86bd 10a6 d03d 845a 62bb 0055 ccbd
000001b0: 24f6 0dbe 5b06 0fbe 78b9 81bd 626d 4e3d
000001c0: be34 be3c 749a cabd a81b 803d 9d8d f43d
000001d0: 9549 b93e 236d cb3e b72d 563e 8af5 813d
000001e0: 4c14 dd3c 87e2 f13d 72bd d73d 1462 8fbd
000001f0: b90e 1f3c 7a0d 48bd 6439 81bd 6f80 0dbd
00000200: ac9f 05bd 82f8 43bd 9f02 85bd 01c5 65be
00000210: 50c0 02be 5584 163d ffb0 bdbd b77f 96bc
00000220: 34e4 aabd ff7a cdbc ace4 2d3d bfe5 ea3c
00000230: f464 63bd 4563 13bd e873 89bd 5e3c e33a
00000240: 63f2 98bc 6a21 1ebd 6a91 88bd 944d c23d
00000250: b5f8 8ebc d2f8 6abd ba5c 91bc 5187 233d
00000260: 75f0 c5bd ef29 c2bd fdb4 db3d 58e7 be3c
00000270: 785e 8ebd f47c 94bd 315e edbd 8d2d 0b3d
00000280: fc5f 84bd d5b2 0d3e 33bc 52bb 8d3c 1abe
00000290: 6c0e cfbd 16fc 28bb bb08 a9bb 64c0 433d
000002a0: c4db 673d 1884 debd 409a 2dbe 8c86 8abc
000002b0: 9939 243d df6e 483d 3dbd 3e3c 2a3e 04bd
000002c0: 2ae2 64bd 66df dcbd fc14 193d b249 b13c
000002d0: 10a3 ab3c 55dd a6bc 4b7a b13c cf49 e6bb
000002e0: 932d 1cbd bc04 813c 1760 63bd 2863 38bd
000002f0: 9fbd 87bc f328 8d3d f3af 773d 4d62 223c
00000300: 267f 113d 3413 ad3d 7125 98ba 9fe8 103d
-0.020405553 -0.03694146 -0.06395524 0.056453273 0.092435315 0.13814677 -0.06372692 -0.04215754
-0.071969315 -0.08726881 -0.032988317 -0.009229078 0.13130967 0.1798212 0.13141651 -0.016998727
-0.038708486 -0.15605089 0.015316744 -0.070610784 0.1676834 0.06026011 -0.03726985 -0.07582977
-0.10883381 -0.12181778 -0.050288036 0.042494576 0.072315715 0.07899617 -0.023244053 -0.069906674
-0.104333185 -0.09562124 -0.12148148 0.03883668 0.025905764 0.044322006 -0.007861979 -0.060332492
-0.015306266 -0.01903963 -0.032723624 0.005157692 0.10137927 0.08889109 0.019104294 -0.043066345
-0.014631786 0.012560655 -0.030557303 0.009165214 0.07365844 -0.03601074 -0.04850032 -0.014725215
-0.052666977 0.070740044 0.081106484 0.011529911 -0.095122315 -0.13141805 0.0011169274 0.06850621
0.11299459 0.038521327 -0.009628202 -0.122897886 -0.0057868822 0.12320519 0.09466438 0.061694793
0.07079275 -0.09788886 -0.2149886 0.027390065 0.09122816 0.11860157 -0.0011993792 -0.02148354
-0.11947756 -0.041362993 -0.03789158 0.0036055527 0.08445115 -0.0471915 0.0133198 -0.04584581
-0.061254725 -0.036456447 0.055897567 0.14517388 -0.02173355 -0.013651295 -0.029213153 0.015491225
-0.11448811 0.040954303 -0.0032957282 0.083038844 0.06350432 0.025551047 -0.13192369 -0.030618753
-0.06570844 0.10187924 -0.0034538815 -0.0997715 -0.13863426 -0.13967268 -0.063342035 0.050397284
0.023218509 -0.09892741 0.06255275 0.11941073 0.3618895 0.39731702 0.20915876 0.06345661
0.026987217 0.11810785 0.10534181 -0.07001129 0.0097081 -0.048840977 -0.063097745 -0.034546312
-0.032622978 -0.047844417 -0.064946406 -0.22438432 -0.12768674 0.036747295 -0.09262275 -0.018371446
-0.083443075 -0.025083063 0.042454407 0.028674005 -0.0555162 -0.035983343 -0.067115605 0.0017336716
-0.018670266 -0.038606085 -0.066683605 0.09487453 -0.017452577 -0.0573662 -0.01774441 0.03992397
-0.09665004 -0.094806544 0.1072788 0.023303673 -0.06951612 -0.072503954 -0.11590231 0.033978987
-0.0646362 0.1383775 -0.0032155633 -0.15062161 -0.10110173 -0.002578502 -0.0051585115 0.0477909
0.05660607 -0.10865039 -0.16953373 -0.01690986 0.040093992 0.04893386 0.011641798 -0.032285847
-0.05587975 -0.10784797 0.037373528 0.021641586 0.020951778 -0.020369211 0.02166476 -0.0070278416
-0.0381294 0.015749328 -0.05551156 -0.045016438 -0.01656991 0.06892576 0.060470533 0.009911132
0.03552165 0.08450928 -0.0011607838 0.035378095

conv2d.bias f4 [4]
00000000: 595c 06be 2c62 1b3e 8017 5fbe 179c 62be
-0.13121165 0.15174168 -0.21786308 -0.22129856

fc1.bias f4 [64]
00000000: 7e7b 283d edbf 413d 4ff5 7e3d b87d 34bc
00000010: 78f9 b6ba cb0e d5bc 9792 9f3c d3c6 e8bb
00000020: 0518 18bb 1752 673b 5407 85bd e483 95bd
00000030: 215b 6c3d 6e41 1a3d bdac 52bd 5d80 663d
00000040: 1aa1 3e3d 3124 193e 7a57 8f3d 5b75 b1bd
00000050: 5984 53bd 14af e7bb 0c83 29bb 0c15 bc3d
00000060: 7087 c3bc a652 bc3c 7038 85bd 2b4e 663c
00000070: 4067 f9bd 5a3c 72bc 8f74 2a3d 633c 97bc
00000080: 8a06 e7bd fca1 b53c 36b4 bdbd 828f 083c
00000090: 8e06 f6bb eb6b 38bb 6d08 673d 064c b23c
000000a0: 10d2 993c 7ce8 bdbc 73de 9e3d 312d 973d
000000b0: c387 a03c 8f01 ea3c 38fd ecba a8f6 a23b
000000c0: 0c01 213d ccae f3bd c5ee 4bbd 51db 3abc
000000d0: c590 fcbc 621e 783d 8b34 5d3a 1046 3c3d
000000e0: 0291 713d 2304 f7bc f1b1 ffbd dba5 c03d
000000f0: f3b3 b93d 0aa2 423d 492c 7f3d 8f45 b03c
0.041133396 0.047302175 0.062245663 -0.011016302 -0.0013959846 -0.02600803 0.01947908 -0.00710378
-0.0023207676 0.0035296732 -0.06495538 -0.07300547 0.057704095 0.037660055 -0.051434267 0.05627476
0.046540357 0.14955212 0.06999107 -0.08664962 -0.05163989 -0.0070704315 -0.0025865464 0.09183702
-0.023868293 0.022988629 -0.06504905 0.014056723 -0.121778965 -0.014784897 0.041615065 -0.018461412
-0.11280544 0.022171967 -0.09262888 0.008334996 -0.0075081056 -0.0028140496 0.05640452 0.021764766
0.018776923 -0.023182146 0.077572726 0.073816665 0.019595986 0.028565196 -0.0018080836 0.0049732514
0.03930764 -0.11898574 -0.049788255 -0.011404828 -0.03083075 0.06057585 0.00084383105 0.045965254
0.05897618 -0.03015334 -0.124851115 0.094066344 0.09067526 0.047517814 0.062298093 0.021517543

fc2.bias f4 [10]
00000000: 94bc 85bd e617 d03d ca0f b0bd 07a0 663d
00000010: cdcc b93d 74d5 353d 49d2 8d3d 30fd 2cbd
00000020: 0138 383d a7c7 cbbd
-0.06530109 0.10160808 -0.085967615 0.056304958 0.09072266 0.044393018 0.06924874 -0.042233646
0.044975284 -0.0995019
